models/pg/best_model.pt (torch, 91046 bytes, 6 tensors)

net.0.weight f4 [128, 103]
0.019141626 -0.07738247 -0.036914412 -0.060903706 -0.030213552 -0.03219406 -0.099648446 -0.076357074
0.07510387 0.04125682 -0.026173057 0.040169753 -0.04389568 0.023403196 0.017603394 0.0065167095
-0.0066157267 -0.03370109 -0.096183285 0.0646311 0.07312931 0.04044155 -0.058495265 -0.062970504
-0.08005341 -0.097236946 0.0047339913 0.01296386 0.04550141 0.08438344 0.086257406 -0.06313525
0.023994982 0.091606155 -0.064018324 0.008256424 -0.046780434 -0.019434238 -0.09370953 -0.08172644
0.05040105 -0.005134384 -0.034109842 0.03409553 -0.04876842 -0.026810717 -0.011043676 0.015143457
0.049275093 -0.071304366 -0.054270856 -0.04917014 -0.047390565 -0.019969165 -0.027187968 -0.03628194
-0.09694479 -0.005016198 -0.071310334 -0.024673795 0.0656465 -0.07247487 -0.081298426 -0.026901128
0.07824949 -0.07268204 0.00079122314 -0.04503339 0.077776566 0.0914849 -0.085051656 0.07461541
-0.0036423102 0.078902826 -0.03658012 -0.045903783 0.045150865 -0.00013952714 -0.023543952 -0.045409873
0.03535861 0.08645791 -0.056826927 1.0531579e-05 -0.046053454 0.0024349533 -0.0039043035 -0.009774573
0.006652726 -0.05344068 -0.009056945 -0.015751654 -0.046243425 -0.019655759 0.014482494 0.05858847
0.033786405 0.053979564 -0.087617844 -0.03826341 0.07316845 0.05621662 0.04642473 0.08232216
0.07031593 0.0972178 0.073010586 -0.03753392 -0.049112204 0.0845462 0.050940625 -0.07520209
-0.0028679052 0.042061627 0.041762155 -0.028550161 0.003803097 -0.0037461629 -0.05564385 -0.046924565
0.08842389 0.07790009 -0.020848317 0.026478449 0.06560651 -0.031051567 0.06607407 0.08722423
0.035187062 0.07980558 0.086082555 -0.05764316 -0.09712261 -0.0178745 -0.036901895 -0.04609253
-0.0064999755 0.077886134 0.058836367 0.037190933 0.008941384 0.0796282 0.012227775 -0.009138683
-0.070204146 -0.054312527 -0.012435186 0.031901233 -0.020398378 -0.07201239 0.009588898 -0.080211386
0.07910036 0.062250786 -0.09082265 0.044286735 0.008662434 0.042603407 -0.09082759 -0.00045636247
-0.0820671 -0.038387623 -0.04180752 0.045723908 -0.0029004242 0.046570946 0.043565568 0.09251407
-0.07388266 0.010385125 -0.03752543 0.04701935 0.06091886 0.08708657 0.06810181 0.048338793
-0.003311812 0.061260466 0.06764558 0.00087998924 -0.10136486 -0.07888683 0.049630232 -0.030260032
-0.051317785 -0.03955474 -0.09337691 -0.053877722 0.06764824 0.09427117 0.08686407 0.0249085
0.09589694 -0.014352229 -0.04198581 0.0062892833 -0.063036844 -0.012622742 -0.08692826 -0.0853648
-0.019936174 -0.06047632 -0.0373978 -0.09188571 0.021985017 -0.059335086 -0.04210834 0.04630388
0.08017058 0.08484328 -0.07832712 0.00022849251 0.053496517 0.0045492644 -0.036922738 -0.077266246
0.00941913 -0.09895345 0.06504388 0.059878245 -0.060829688 -0.07520992 -0.058063254 0.062492996
0.011119901 0.064049155 0.06734338 -0.04765896 0.052609537 0.021783054 0.055864125 0.05797806
-0.0016977434 -0.033045664 -0.0008829767 -0.014526221 0.071487956 0.08608605 0.019496178 0.0046171993
0.02807139 0.075989045 0.043049883 0.06351114 -0.046072744 -0.07254319 -0.051930666 -0.03584402
-0.03203658 -0.09932709 -0.058313463 -0.06607639 0.09730178 -0.021660062 -0.07986719 0.083839186
00000000: e6ce 9c3c b37a 9ebd 9133 17bd 2a76 79bd
00000010: 6982 f7bc ebdd 03bd 7c14 ccbd 1961 9cbd
00000020: 0fd0 993d e9fc 283d e168 d6bc 0a89 243d
00000030: f5cb 33bd 0fb8 bf3c fe34 903c 1f8a d53b
00000040: bdc8 d8bb 270a 0abd befb c4bd 4f5d 843d
00000050: d2c4 953d 0aa6 253d bb98 6fbd aef6 80bd
00000060: 0bf3 a3bd 2a24 c7bd 991f 9b3b 5f66 543c
00000070: b05f 3a3d 3ad1 ac3d b9a7 b03d 0e4d 81bd
00000080: 2091 c43c 029c bb3d 0a1c 83bd f445 073c
00000090: d79c 3fbd 8d34 9fbc c8ea bfbd 3160 a7bd
000000a0: 5571 4e3d 563e a8bb c3b6 0bbd c1a7 0b3d
000000b0: 65c1 47bd 26a2 dbbc 89f0 34bc 431c 783c
000000c0: aed4 493d 0608 92bd 1e4b 5ebd a166 49bd
000000d0: 9c1c 42bd 6096 a3bc 4db9 debc 5f9c 14bd
000000e0: fd8a c6bd eb5e a4bb 270b 92bd b320 cabc
000000f0: ac71 863d b46d 94bd ca7f a6bd c15f dcbc
00000100: 4541 a03d 52da 94bd 166a 4f3a ef74 38bd
00000110: 5249 9f3d 6f5c bb3d 902f aebd f7cf 983d
00000120: d3b3 6ebb ce97 a13d 09d5 15bd 9b05 3cbd
00000130: 1df0 383d 084e 12b9 3fdf c0bc b4ff 39bd
00000140: 31d4 103d d810 b13d 5ac3 68bd cab0 3037
00000150: 8ca2 3cbd bd93 1f3b 58df 7fbb 8825 20bc
00000160: 1cff d93b 9de4 5abd 9563 14bc 9d09 81bc
00000170: bf69 3dbd 1d05 a1bc fc47 6d3c 77fa 6f3d
00000180: 9d63 0a3d ad19 5d3d fc70 b3bd 18ba 1cbd
00000190: 57d9 953d 6643 663d dc27 3e3d 8598 a83d
000001a0: cc01 903d 201a c73d 9386 953d 2bbd 19bd
000001b0: e129 49bd 8f26 ad3d 1ea7 503d 8e03 9abd
000001c0: 77f3 3bbb d048 2c3d cb0e 2b3d 07e2 e9bc
000001d0: 613d 793b 2f82 75bb ceea 63bd f933 40bd
000001e0: 9617 b53d 158a 9f3d 17ca aabc 55e9 d83c
000001f0: b55c 863d db5f febc d851 873d 9ea2 b23d
00000200: 4f20 103d 1c71 a33d 0d4c b03d 3c1b 6cbd
00000210: 38e8 c6bd 8b6d 92bc 7126 17bd 85cb 3cbd
00000220: bffd d4bb c482 9f3d 67fe 703d 8555 183d
00000230: e27e 123c 1c14 a33d 0157 483c 6aba 15bc
00000240: 31c7 8fbd d076 5ebd f3bc 4bbc deaa 023d
00000250: 801a a7bc 3b7b 93bd c11a 1d3c de45 a4bd
00000260: 5fff a13d aefa 7e3d 3a01 babd 0266 353d
00000270: e2ec 0d3c e980 2e3d d103 babd ef43 efb9
00000280: cc12 a8bd 573c 1dbd 5d3e 2bbd fe48 3b3d
00000290: 0b15 3ebb 2dc1 3e3d cf71 323d 0478 bd3d
000002a0: cb4f 97bd 5f26 2a3c 44b4 19bd 5d97 403d
000002b0: 0e86 793d 725a b23d f678 8b3d e6fe 453d
000002c0: fc0a 59bb 41ec 7a3d c489 8a3d 14af 663a
000002d0: 6198 cfbd 6b8f a1bd 1249 4b3d e3e3 f7bc
000002e0: 9932 52bd 2704 22bd 653c bfbd e3ae 5cbd
000002f0: 298b 8a3d 3e11 c13d cae5 b13d e90c cc3c
00000300: 9d65 c43d 9d25 6bbc 50f9 2bbd 5516 ce3b
00000310: 7619 81bd 9ecf 4ebc 7207 b2bd bed3 aebd
00000320: 3051 a3bc 05b6 77bd 6f2e 19bd 932e bcbd
00000330: ec19 b43c 5909 73bd cb79 2cbd 23a9 3d3d
00000340: 7930 a43d 50c2 ad3d f869 a0bd 7e97 6f39
00000350: 2a1f 5b3d ff11 953b 4c3c 17bd c43d 9ebd
00000360: b252 1a3c 1ba8 cabd ba35 853d e442 753d
00000370: 8d28 79bd a907 9abd bcd3 6dbd a8f8 7f3d
00000380: 3f30 363c 342c 833d 53eb 893d 0b36 43bd
00000390: 197d 573d 6072 b23c c8d1 643d 677a 6d3d
000003a0: d186 deba e45a 07bd 9077 67ba 63ff 6dbc
000003b0: 4768 923d e24d b03d 73b6 9f3c e04b 973b
000003c0: f9f5 e53c 25a0 9b3d 1355 303d 2112 823d
000003d0: c6b6 3cbd 8691 94bd 40b5 54bd 2ed1 12bd
000003e0: ca38 03bd 006c cbbd 19da 6ebd 0f53 87bd
000003f0: 2846 c73d 7170 b1bc 6991 a3bd e1b3 ab3d

net.0.bias f4 [128]
-0.09492083 -0.060888443 -0.049499225 0.0532489 -0.0353816 -0.09329986 -0.07406001 -0.029293215
-0.005708442 -0.03798478 0.009618398 -0.0072554937 -0.08731332 0.07841898 -0.037435774 -0.00151372
-0.004390374 0.0531387 -0.039663732 0.022172235 -0.03930858 -0.052484173 0.049081337 0.051325295
0.061119214 0.017276863 0.061659057 0.07487382 0.0689139 0.024232192 0.08626784 -0.07280841
0.091752574 0.05312132 -0.08396887 -0.06728692 0.0049261483 0.082857676 -0.092375234 0.0050089457
0.014499712 -0.09209806 -0.03222169 -0.040107336 0.055021647 -0.06736135 0.026209349 -0.054651927
-0.0028350975 -0.054189164 -0.046084948 0.06670697 0.049986657 0.023329299 -0.05933235 0.013274836
-0.029566696 0.005143602 -0.042951226 0.04585003 0.017478615 0.026852647 -0.05707103 0.029148651
0.01421424 -0.08758008 -0.00023800741 0.09361983 0.0350624 -0.060083378 0.09318073 0.07974708
-0.0070469705 0.09193264 0.03929007 -0.0675724 -0.053219877 -0.065142125 0.032931242 -0.09527976
0.062172435 0.061074898 -0.02711741 -0.040067323 -0.0021228641 0.047343872 0.034510367 -0.07474044
0.05068458 0.02884428 -0.02170461 -0.08782479 -0.026691759 -0.09778436 -0.0063254395 0.04474766
-0.0094679585 0.0646157 -0.020753548 0.07289825 -0.043406714 0.04636082 -0.04665419 -0.017934278
0.08531516 -0.02417466 0.070707805 0.08094642 0.055058353 0.08130557 0.03587755 -0.02182801
0.09212652 -0.07347528 0.06813686 -0.030638354 0.05170138 0.08638008 0.051563513 -0.06025066
0.004221398 -0.036666684 0.046498753 -0.0019515911 -4.2795076e-05 0.012803711 0.07741283 -0.052017473
00000000: da65 c2bd 2966 79bd b3bf 4abd 851b 5a3d
00000010: 4cec 10bd ff13 bfbd c6ac 97bd 53f8 efbc
00000020: e20d bbbb ee95 1bbd 7c96 1d3c 7ebf edbb
00000030: 53d1 b2bd 219a a03d 4156 19bd 0468 c6ba
00000040: 20dd 8fbb f7a7 593d 7076 22bd 8ca2 b53c
00000050: 0902 21bd a5f9 56bd 8309 493d 793a 523d
00000060: 2458 7a3d 3588 8d3c 358e 7c3d 7257 993d
00000070: bb22 8d3d 9782 c63c 31ad b03d 931c 95bd
00000080: c6e8 bb3d be95 593d dff7 abbd bacd 89bd
00000090: 876b a13b 49b1 a93d 3a2f bdbd 1522 a43b
000000a0: 3390 6d3c e89d bcbd e4fa 03bd 9747 24bd
000000b0: 615e 613d bff4 89bd fdb4 d63c b3da 5fbd
000000c0: 0bcd 39bb 75f5 5dbd 92c3 3cbd aa9d 883d
000000d0: cfbe 4c3d 161d bf3c 7a06 73bd b37e 593c
000000e0: db35 f2bc a98b a83b a0ed 2fbd 3ecd 3b3d
000000f0: 502f 8f3c 15fa db3c 50c3 69bd 27c9 ee3c
00000100: d8e2 683c 2f5d b3bd a191 79b9 c1bb bf3d
00000110: 979d 0f3d fd19 76bd 8ad5 be3d 7052 a33d
00000120: 46ea e6bb 2e47 bc3d a0ee 203d 6663 8abd
00000130: 16fd 59bd 3c69 85bd e9e2 063d 0922 c3bd
00000140: 86a8 7e3d ac29 7a3d 5525 debc a21d 24bd
00000150: c01f 0bbb a6eb 413d be5a 0d3d 8411 99bd
00000160: a29a 4f3d d74a ec3c decd b1bc 7cdd b3bd
00000170: ada8 dabc 2b43 c8bd a245 cfbb 5349 373d
00000180: 7f1f 1bbc 3c55 843d 5803 aabc ad4b 953d
00000190: 3dcb 31bd d8e4 3d3d 7718 3fbd e8ea 92bc
000001a0: b7b9 ae3d f009 c6bc 41cf 903d 3dc7 a53d
000001b0: de84 613d 8983 a63d 56f4 123d a8d0 b2bc
000001c0: d4ac bc3d 357a 96bd 578b 8b3d 49fd fabc
000001d0: d4c4 533d 0ae8 b03d 4334 533d 65c9 76bd
000001e0: a753 8a3b ce2f 16bd 7a75 3e3d 88cc ffba
000001f0: dd7e 33b8 a8c6 513c 9e8a 9e3d 4610 55bd

net.2.weight f4 [64, 128]
-0.06371979 0.06573191 0.08965159 -0.06732376 -0.05085861 -0.02372702 -0.067503765 0.020335793
-0.073517144 0.037343793 -0.08137786 -0.07973999 -0.072559856 -0.04000083 0.0282707 -0.02601256
-0.069727525 -0.05621522 0.058557093 -0.07631525 0.08406479 -0.039990705 -0.007903334 -0.018004568
-0.033859614 0.015400485 -0.04710235 -0.007642965 0.03816248 0.05522801 -0.063116774 0.031195713
-0.058597635 0.07585647 0.060650084 0.07971143 0.08016775 0.079211906 0.049092036 0.072181806
0.034915514 -0.008805646 -0.051709123 -0.05517906 0.016488157 0.035811093 -0.021247169 0.048072487
0.07513968 -0.023167543 -0.08657462 0.037483413 -0.07988787 -0.024837213 0.038998723 -0.033056952
0.07298075 0.035797767 -0.038581148 0.07344573 0.009077512 -0.009909301 -0.039028484 -0.0696181
-0.02535064 0.0882857 -0.00015865323 0.02725179 -0.0700403 0.08660302 0.05224818 -0.0069880052
0.013891261 0.07826618 -0.04495683 0.033376846 -0.06891569 -0.052668177 -0.05554262 0.010728408
-0.0060378304 -0.057196174 0.06632764 -0.0510276 0.044553936 -0.027276797 0.01760357 -0.013791785
0.03925596 -0.0043887617 0.059557408 0.03860646 0.07655894 0.05563944 0.03692097 0.034342017
0.0069620158 0.08075653 0.08040924 -0.05874311 -0.08641025 0.0637317 -0.060425665 0.008769356
0.049095795 -0.02244434 -0.076528355 -0.054631386 0.068358 0.054334566 0.035480384 -0.012921541
0.0216889 -0.058067314 -0.05411949 -0.034695305 -0.012459839 -0.053334605 0.031539604 -0.002864601
0.019149398 0.018802945 0.009349124 0.02468444 0.033165447 -0.031368885 -0.03292897 0.012474888
0.027581388 -0.0678962 0.039065838 0.0020747958 0.07308378 -0.082390085 0.006972972 -0.07163474
-0.05883786 0.058303077 -0.038140256 -0.070872486 -0.033556957 -0.046993192 -0.085154824 -0.07688387
0.06793358 0.00195211 0.017631259 0.003311705 0.08591597 0.07052952 -0.014338573 0.030646792
-0.056224316 0.04491492 0.06126685 0.054707553 -0.014417547 -0.012636717 0.01972006 0.013004816
0.058182057 0.021505503 0.092685215 0.028574418 -0.04605263 0.068601094 -0.04766754 -0.019577706
0.043732677 0.0471869 0.06845302 0.045119766 0.0040136725 -0.0561252 -0.032693267 -0.05948532
-0.06372817 0.030501263 -0.081640065 0.019457275 0.031083288 -0.08011187 0.066478774 0.022189286
-0.062006544 0.058331985 -0.024285447 0.08011877 0.0066431668 0.08574626 -0.016117359 0.009628738
0.061678037 -0.05229087 -0.07093223 -0.047498412 0.050749 -0.033538587 0.06588476 -0.0023920713
-0.027995553 -0.011914301 0.04263299 -0.044683255 -0.06507138 -0.03428485 0.027766442 0.04234947
-0.06498471 -0.06809104 -0.006066089 0.07392483 0.037618168 -0.0697514 -0.009981339 -0.016014047
-0.06976233 0.059213996 -0.043778736 0.02151976 0.04940884 0.060142577 0.02411364 -0.00904537
0.06784963 -0.028632566 -0.07430587 -0.07923555 -0.022292055 -0.0068896543 -0.077706195 0.041442547
-0.028942553 0.03442975 0.05478397 0.041974425 0.07834481 0.024868444 -0.0066497414 -0.037606068
0.057573214 -0.022773465 -0.07531528 0.029841263 0.0038865462 0.030046068 -0.029948581 -0.026496073
0.007242006 -0.04453375 -0.06360289 0.06969856 -0.0448263 -0.07505953 0.029389167 0.02609318
00000000: 857f 82bd 749e 863d 419b b73d 0ae1 89bd
00000010: 1e51 50bd 2b5f c2bc 6a3f 8abd 4097 a63c
00000020: 2890 96bd cef5 183d 6fa9 a6bd b84e a3bd
00000030: 439a 94bd e9d7 23bd f497 e73c 4b18 d5bc
00000040: 4ecd 8ebd ee41 66bd 90d9 6f3d 2b4b 9cbd
00000050: 292a ac3d 4bcd 23bd fc7c 01bc 517e 93bc
00000060: 61b0 0abd 5152 7c3c 65ee 40bd d671 fabb
00000070: 4350 1c3d c436 623d 5e43 81bd 278e ff3c
00000080: 1304 70bd a35a 9b3d 396c 783d bf3f a33d
00000090: fd2e a43d da39 a23d bb14 493d 0ed4 933d
000000a0: 9203 0f3d 8e45 10bc f2cc 53bd 7003 62bd
000000b0: 2c12 873c a7ae 123d 8b0e aebc a8e7 443d
000000c0: d5e2 993d dcc9 bdbc 094e b1bd 3588 193d
000000d0: 409c a3bd 6977 cbbc 20bd 1f3d ba66 07bd
000000e0: ee76 953d aea0 123d 4407 1ebd b76a 963d
000000f0: d8b9 143c 9f5a 22bc 55dc 1fbd ef93 8ebd
00000100: 25ac cfbc 22cf b43d 275c 26b9 253f df3c
00000110: 4a71 8fbd ed5c b13d 3002 563d a3fb e4bb
00000120: 2c98 633c 054a a03d a724 38bd 29b6 083d
00000130: ab23 8dbd 96ba 57bd a980 63bd 34c6 2f3c
00000140: fed8 c5bb 8946 6abd c9d6 873d 5102 51bd
00000150: 307e 363d 9773 dfbc 5d35 903c f0f6 61bc
00000160: dcca 203d 9acf 8fbb 78f2 733d cf21 1e3d
00000170: efca 9c3d 2ee6 633d 713a 173d 37aa 0c3d
00000180: 9f21 e43b ae63 a53d 9aad a43d 9e9c 70bd
00000190: dbf7 b0bd c485 823d e780 77bd 58ad 0f3c
000001a0: ac18 493d 31dd b7bc e6ba 9cbd 29c5 5fbd
000001b0: 47ff 8b3d ec8d 5e3d e153 113d dfb4 53bc
000001c0: ecac b13c fed7 6dbd 66ac 5dbd aa1c 0ebd
000001d0: 5a24 4cbc 6375 5abd ac2f 013d 08bc 3bbb
000001e0: 33df 9c3c a208 9a3c 112d 193c 0637 ca3c
000001f0: 7ed8 073d a97c 00bd 87e0 06bd 7963 4c3c
00000200: 5df2 e13c 2a0d 8bbd 8003 203d 4cf9 073b
00000210: f3ac 953d 22bc a8bd 877d e43b 3cb5 92bd
00000220: f8ff 70bd 35cf 6e3d f538 1cbd 9825 91bd
00000230: 0573 09bd ef7b 40bd a765 aebd 4a75 9dbd
00000240: c320 8b3d f1dd ff3a 6e6f 903c 3109 593b
00000250: b6f4 af3d c871 903d 56ec 6abc fb0e fb3c
00000260: 784b 66bd b5f8 373d f3f2 7a3d 0715 603d
00000270: 9337 6cbc 3c0a 4fbc f78b a13c 2712 553c
00000280: 4f50 6e3d 4f2c b03c bfd1 bd3d e614 ea3c
00000290: afa1 3cbd bb7e 8c3d 0a3f 43bd 6d61 a0bc
000002a0: 0921 333d 0d47 413d 1931 8c3d 81cf 383d
000002b0: 2085 833b 8ae3 65bd 60e9 05bd e1a6 73bd
000002c0: ea83 82bd c9dd f93c e832 a7bd dd64 9f3c
000002d0: 61a2 fe3c b111 a4bd 0626 883d 4ec6 b53c
000002e0: 93fa 7dbd 85ed 6e3d 46f2 c6bc 4f15 a43d
000002f0: ecae d93b bc9b af3d 8d08 84bc dbc1 1d3c
00000300: 1ca2 7c3d f42e 56bd eb44 91bd b28d 42bd
00000310: 2fde 4f3d c25f 09bd 97ee 863d 4cc4 1cbb
00000320: ee56 e5bc 3334 43bc ee9f 2e3d ca05 37bd
00000330: 2544 85bd 456e 0cbd 7376 e33c a376 2d3d
00000340: b416 85bd 5173 8bbd 0bc6 c6bb e765 973d
00000350: 8215 1a3d d2d9 8ebd c588 23bc e42f 83bc
00000360: 8ddf 8ebd 608a 723d 5551 33bd 354a b03c
00000370: ec60 4a3d 1058 763d f889 c53c 0833 14bc
00000380: bff4 8a3d d88e eabc ad2d 98bd 3f46 a2bd
00000390: d49d b6bc 9cc2 e1bb 6d24 9fbd a9bf 293d
000003a0: ef18 edbc 3606 0d3d 2865 603d 60ed 2b3d
000003b0: 3e73 a03d e8b8 cb3c 13e6 d9bb d208 1abd
000003c0: e4d1 6b3d 6b8f babc e63e 9abd aa75 f43c
000003d0: 6db5 7e3b 2c23 f63c ba56 f5bc 4b0e d9bc
000003e0: 594e ed3b 0569 36bd 3b42 82bd 1ebe 8e3d
000003f0: c89b 37bd d0b8 99bd 8dc1 f03c 5dc1 d53c

net.2.bias f4 [64]
-0.009420856 -0.003138646 -0.04197421 0.0044035763 -0.08021258 0.08135822 -0.048135694 -0.015372609
-0.07052078 0.022584258 -0.03020132 0.06167555 0.05618447 -0.05161143 -0.08093421 0.0843544
0.056274313 -0.05327629 0.022734843 0.053551495 0.025912646 0.0051018507 0.07236342 0.09034019
0.033740167 -0.087915786 -0.012185149 -0.061855834 -0.041030135 0.08293033 -0.02527031 0.028295884
-0.08368205 0.014273322 -0.02760497 0.007903762 0.047585964 -0.004874926 0.004571829 0.01900272
0.07588561 0.05046655 0.04270198 0.06130895 -0.072471075 0.009828226 0.050685406 0.02713174
0.012456793 0.0543336 0.051756192 -0.055863652 0.07331446 0.07933888 -0.059109177 -0.03686604
-0.006184537 -0.06739021 0.07452008 0.058725778 0.06820003 -0.059002187 -0.04520039 -0.07825792
00000000: ef59 1abc beb1 4dbb 26ed 2bbd e04b 903b
00000010: 7e46 a4bd 239f a63d ef29 45bd 65dd 7bbc
00000020: 336d 90bd 9f02 b93c c268 f7bc 809f 7c3d
00000030: b021 663d 8266 53bd d6c0 a5bd 00c2 ac3d
00000040: e57f 663d 3d38 5abd 6c3e ba3c d058 5b3d
00000050: c246 d43c 6d2d a73b 4633 943d 4704 b93d
00000060: 2133 0a3d 310d b4bd 38a4 47bc 8b5c 7dbd
00000070: 370f 28bd 60d7 a93d ae03 cfbc c5cc e73c
00000080: 7f61 abbd a7da 693c d123 e2bc c87e 013c
00000090: 80e9 423d d8bd 9fbb 48cf 953b 98ab 9b3c
000000a0: ea69 9b3d 03b6 4e3d 45e8 2e3d 181f 7b3d
000000b0: b76b 94bd 9106 213c 809b 4f3d 6243 de3c
000000c0: 9417 4c3c e98c 5e3d 4dfe 533d 49d1 64bd
000000d0: e425 963d 6c7c a23d 771c 72bd d800 17bd
000000e0: a8a7 cabb e103 8abd fc9d 983d 718a 703d
000000f0: 75ac 8b3d 47ac 71bd 0b24 39bd b045 a0bd

net.4.weight f4 [8, 64]
-0.058483273 0.025148755 -0.06781723 -0.07694901 -0.06612273 -0.026756952 0.09395873 0.07114806
0.09097243 0.027623218 0.11805121 -0.10217581 -0.092668705 -0.028352372 0.0805833 -0.12191366
-0.10788488 0.006249867 0.036548782 0.029817572 -0.027008314 -0.0029119758 0.07080418 -0.021675626
0.020788604 0.11041392 0.026678458 -0.07649801 0.06835989 0.05524655 0.058776505 -0.08563129
-0.09501235 0.005231401 -0.088798754 -0.039322905 -0.052814335 -0.09440384 0.031501178 -0.112697504
0.006780155 -0.06801619 -0.005175836 0.020883527 0.075857565 -0.05992027 -0.043968137 0.059376147
0.059665445 0.028342273 0.019062638 -0.037193727 0.0048400993 0.076009 0.09494798 0.11297045
0.018941075 -0.096781924 -0.04424889 -0.08657466 -0.0041479184 -0.10299144 -0.012321432 -0.11329735
-0.060989723 0.058166128 -0.049774423 0.102493346 -0.09149501 0.072650775 -0.0215354 -0.11046001
0.0983615 -0.10071417 -0.056377295 -0.019034412 -0.02642396 0.07738787 0.10077827 -0.079875045
-0.051407542 -0.06205775 -0.075584844 -0.080174685 0.033728518 0.09825775 0.06010841 0.0847946
-0.09501187 -0.062363487 -0.06468903 -0.11329174 -0.048570815 -0.11715164 0.12531433 0.015559311
0.07276115 -0.023877801 -0.017844655 -0.106447786 0.11119767 0.12060863 0.029227978 0.02435577
0.0026716264 0.071867205 -0.017127883 0.117892094 -0.05226369 0.08573224 0.1052296 -0.10647532
-0.03526097 0.11853874 0.118753634 -0.09805112 -0.0717455 -0.111807756 -0.025407687 0.07325221
-0.08640367 -0.06980806 -0.010422969 0.11796727 -0.028761283 0.09352239 -0.0847235 0.11605743
0.09368407 -0.09268687 0.10286335 -0.0064915605 -0.09126105 -0.026173158 -0.03454491 0.0764657
-0.015696654 -0.09330382 0.10031302 -0.0017718573 0.0074099246 -0.06793957 0.0521532 -0.06251531
0.08652996 0.06547125 -0.025898507 -0.03493676 -0.10115933 -0.06254169 -0.08972008 -0.06452924
0.09670891 -0.068564035 0.103623696 0.09160448 0.011921834 -0.037161134 -0.052777022 -0.029642474
0.1177742 0.02444491 -0.06597806 0.05899679 0.05235608 -0.043899234 0.0057074367 0.05752913
0.07665403 0.08045053 -0.12384531 0.09770355 0.0041707843 0.02695167 -0.05991871 0.116993465
-0.082040414 -0.028356034 -0.028516628 0.117221706 -0.09098656 0.003476599 -0.0110905655 -0.032103807
-0.09385187 -0.08011662 0.009855618 -0.017113488 -0.04842039 0.050507378 0.07326411 -0.11777794
0.08218912 -0.0037969556 0.06686779 0.022369381 -0.042235505 0.071828716 -0.0013313841 -0.105138734
-0.065003365 -0.05180133 -0.014575934 0.003723435 -0.11506185 0.086643994 0.03515949 -0.009315111
-0.01515359 -0.089972734 0.048673727 -0.04053872 -0.032931864 -0.118126154 -0.08834298 0.010097434
-0.0856829 0.023714615 -0.0065421406 0.06326891 -0.0696188 0.11127919 -0.04428464 -0.03146295
0.109312065 -5.2592135e-05 0.030900495 0.03501736 0.018689185 -0.022498151 -0.00043463378 0.016471319
0.05143161 -0.002241111 -0.06183341 0.03655025 0.008878837 0.051495556 0.03516013 0.10127885
0.06996894 -0.008456733 0.009691787 -0.04754509 0.08841524 -0.046058714 0.09660689 0.061216388
-0.008108975 -0.0028153264 -0.0090647815 -0.09953741 0.07944531 0.04654985 -0.026210153 -0.119965956
00000000: 288c 6fbd c304 ce3c c3e3 8abd 7197 9dbd
00000010: 5b6b 87bd 6531 dbbc 6f6d c03d 13b6 913d
00000020: c14f ba3d 164a e23c d5c4 f13d 8d41 d1bd
00000030: 17c9 bdbd 3c43 e8bc db08 a53d dead f9bd
00000040: bff2 dcbd afcb cc3b 2db4 153d fb43 f43c
00000050: 8a40 ddbc d9d6 3ebb c801 913d 1591 b1bc
00000060: dd4c aa3c b120 e23d c88c da3c fdaa 9cbd
00000070: 4500 8c3d 354a 623d a2bf 703d 755f afbd
00000080: d695 c2bd 2c6c ab3b 1fdc b5bd 0e11 21bd
00000090: d853 58bd cd56 c1bd 6107 013d f3cd e6bd
000000a0: 102c de3b 124c 8bbd 0f9a a9bb ee13 ab3c
000000b0: 365b 9b3d f56e 75bd ef17 34bd 6734 733d
000000c0: c163 743d 0e2e e83c 4029 9c3c 7358 18bd
000000d0: b299 9e3b 9baa 9b3d 1674 c23d 0d5d e73d
000000e0: 502a 9b3c 9a35 c6bd 533e 35bd 0e4e b1bd
000000f0: 43eb 87bb 2ded d2bd d5df 49bc 7108 e8bd
00000100: 5cd0 79bd 9b3f 6e3d 44e0 4bbd 08e8 d13d
00000110: bc61 bbbd eec9 943d 026b b0bc dc38 e2bd
00000120: c171 c93d 3b43 cebd e1eb 66bd 0eee 9bbc
00000130: 1077 d8bc 887d 9e3d d664 ce3d 8795 a3bd
00000140: b790 52bd 4430 7ebd 3acc 9abd a032 a4bd
00000150: ea26 0a3d 5c3b c93d 3c34 763d cba8 ad3d
00000160: 9595 c2bd db70 7fbd af7b 84bd 8005 e8bd
00000170: 31f2 46bd 33ed efbd 6652 003e 7bec 7e3c
00000180: cc03 953d 619b c3bc f42e 92bc 4c01 dabd
00000190: 9bbb e33d a801 f73d 836f ef3c c085 c73c
000001a0: 7416 2f3b 1d2f 933d c64f 8cbc 6971 f13d
000001b0: 7312 56bd 6294 af3d 9e82 d73d bc0f dabd
000001c0: cf6d 10bd 70c4 f23d 1b35 f33d 07cf c8bd
000001d0: 4eef 92bd 77fb e4bd c823 d0bc 4105 963d
000001e0: 68f4 b0bd 87f7 8ebd 1ac5 2abc d398 f13d
000001f0: c89c ebbc ab88 bf3d 8483 adbd 85af ed3d
00000200: 6fdd bf3d 9dd2 bdbd 05aa d23d 28b7 d4bb
00000210: 13e7 babd 1769 d6bc f77e 0dbd 0d9a 9c3d
00000220: 4596 80bc 1316 bfbd ea70 cd3d aa3d e8ba
00000230: f4ce f23b e723 8bbd 989e 553d 0708 80bd
00000240: 9f36 b13d ca15 863d 1b29 d4bc d919 0fbd
00000250: 9f2c cfbd dc15 80bd 29bf b7bd e827 84bd
00000260: 520f c63d 4d6b 8cbd a938 d43d 219b bb3d
00000270: cc53 433c 4636 18bd b82c 58bd c6d4 f2bc
00000280: 9a33 f13d b140 c83c 811f 87bd 9ea6 713d
00000290: 5473 563d afcf 33bd 7305 bb3b aaa3 6b3d
000002a0: cafc 9c3d 3fc3 a43d 9ca2 fdbd cc18 c83d
000002b0: 13ab 883b c0c9 dc3c 526d 75bd 459a ef3d
000002c0: ce04 a8bd ea4a e8bc b49b e9bc ef11 f03d
000002d0: 2957 babd a7d7 633b 34b5 35bc 487f 03bd
000002e0: 6935 c0bd 2f14 a4bd 7579 213c 9631 8cbc
000002f0: 7554 46bd d3e0 4e3d 7e0b 963d 9035 f1bd
00000300: c552 a83d 58d6 78bb fbf1 883d fe3f b73c
00000310: 23ff 2cbd ef1a 933d d681 aeba fa52 d7bd
00000320: 7c20 85bd a22d 54bd e6cf 6ebc e004 743b
00000330: 8ca5 ebbd 6872 b13d 6603 103d 689e 18bc
00000340: c346 78bc a043 b8bd 1a5e 473d ee0b 26bd
00000350: 90e3 06bd 20ec f1bd 2aed b4bd b56f 253c
00000360: 847a afbd 2745 c23c 745f d6bb 2193 813d
00000370: 4d94 8ebd 58e6 e33d d063 35bd 4bdf 00bd
00000380: 01df df3d 6096 5cb8 0923 fd3c 5d6e 0f3d
00000390: 101a 993c 0b4e b8bc 8fdf e3b9 dcee 863c
000003a0: f4a9 523d 9adf 12bb 0845 7dbd b7b5 153d
000003b0: 8b78 113c 01ed 523d 1204 103d 496b cf3d
000003c0: e04b 8f3d 1c8e 0abc 4dca 1e3c a4be 42bd
000003d0: 0d13 b53d 10a8 3cbd d5d9 c53d 09be 7a3d
000003e0: 82db 04bc 5781 38bb 7384 14bc 45da cbbd
000003f0: 39b4 a23d 0eab 3e3d adb6 d6bc b6b0 f5bd

net.4.bias f4 [8]
0.060607977 0.043060306 0.053172246 -0.018631369 -0.04346876 0.104705796 0.054917257 -0.08981673
00000000: 1240 783d 0160 303d 24cb 593d d0a0 98bc
00000010: 4c0c 32bd fe6f d63d ebf0 603d d5f1 b7bd
