models/pg/final_model.pt (torch, 91056 bytes, 6 tensors)

net.0.weight f4 [128, 103]
0	0x3cb2123a	0.021737207
1	0xbd9ef94c	-0.07762393
2	0xbd134d5a	-0.03596244
3	0xbd6a3d3f	-0.057187315
4	0xbcfb300f	-0.030662565
5	0xbcfa563d	-0.0305587
6	0xbdc71cb1	-0.09722269
7	0xbd9a25b5	-0.07526723
8	0x3d96ba0f	0.073597066
9	0x3d2faf52	0.042891808
10	0xbcd0e4cc	-0.025499724
11	0x3d22aaad	0.03971355
12	0xbd37bbca	-0.044856824
13	0x3cbe25a4	0.023211308
14	0x3c8628d7	0.016376896
15	0x3c032e66	0.008006668
16	0xbbf1b40e	-0.0073762005
17	0xbd0bef23	-0.034163605
18	0xbdc73f20	-0.09728837
19	0x3d833c56	0.064079925
20	0x3d942b8d	0.07234869
21	0x3d219584	0.03944923
22	0xbd6f1133	-0.05836601
23	0xbd8321cc	-0.064029306
24	0xbda93ed6	-0.08263938
25	0xbdc580fd	-0.09643743
26	0x3b8ef232	0.004362368
27	0x3c4e0f2f	0.012576862
28	0x3d39ade9	0.04533187
29	0x3dae19e3	0.08501031
30	0x3db7486c	0.0894936
31	0xbd8414c4	-0.06449273
32	0x3cbaf5ad	0.022822225
33	0x3dba2a26	0.090900704
34	0xbd785f64	-0.060637847
35	0x3befb8b9	0.007315722
36	0xbd432ef7	-0.04765221
37	0xbc9ee86b	-0.019397935
38	0xbdc316d0	-0.095258355
39	0xbda611fe	-0.081089005
40	0x3d4d88fc	0.050179467
41	0xbb8f5543	-0.0043741777
42	0xbd0d9a08	-0.034570724
43	0x3d0afbfc	0.033931717
44	0xbd3fef4f	-0.04685908
45	0xbcbb7eda	-0.022887636
46	0xbc3c8119	-0.011505389
47	0x3c802d8b	0.015646717
48	0x3d4c4940	0.049874544
49	0xbd946df1	-0.07247532
50	0xbd5b6e1b	-0.0535718
51	0xbd48c033	-0.04901142
52	0xbd4582b4	-0.04822035
53	0xbca606bc	-0.020266883
54	0xbcdb035e	-0.026735004
55	0xbd1127aa	-0.035438217
56	0xbdc5b9e5	-0.09654597
57	0xbbbf93d9	-0.0058464822
58	0xbd8e1cba	-0.06939073
59	0xbcb64cde	-0.02225345
60	0x3d871558	0.06595868
61	0xbd96b4f0	-0.0735873
62	0xbdaf755e	-0.08567308
63	0xbcebf898	-0.028805062
64	0x3d9cd595	0.07657925
65	0xbd9ae388	-0.075629294
66	0x3a9ecd54	0.0012115636
67	0xbd43a810	-0.0477677
68	0x3d9ea7bc	0.077468365
69	0x3dc074b5	0.0939726
70	0xbdab299b	-0.08357545
71	0x3d9df1b1	0.077121146
72	0xbaa87f29	-0.001285528
73	0x3da16190	0.07879937
74	0xbd142fb3	-0.036178302
75	0xbd3f80c9	-0.04675368
76	0x3d39f030	0.045395076
77	0xbb1e4f08	-0.0024155993
78	0xbcb221f7	-0.021744711
79	0xbd29459d	-0.041326154
80	0x3d11f477	0.03563353
81	0x3db4f8c7	0.08836513
82	0xbd725404	-0.059162155
83	0x38b38798	8.5606414e-05
84	0xbd3a27ae	-0.045447998
85	0x3acc6e29	0.0015596795
86	0xbb5bcea1	-0.0033539908
87	0xbc18ec37	-0.009333662
88	0x3c1d61d2	0.009605842
89	0xbd54dc29	-0.051967774
90	0xbbf6b3e1	-0.0075287675
91	0xbc5cc4c0	-0.013474643
92	0xbd3f2577	-0.04666659
93	0xbc9c357f	-0.019068478
94	0x3c71fa58	0.014769159
95	0x3d72b26b	0.059252184
96	0x3d0d111a	0.034440137
97	0x3d5ac8e9	0.05341426
98	0xbdb3623a	-0.087589696
99	0xbd1a2842	-0.03763605
100	0x3d99893c	0.074968785
101	0x3d6fc7bd	0.058540095
102	0x3d4eb684	0.05046703
103	0x3da8b997	0.082385235
104	0x3d91a36e	0.0711125
105	0x3dca7a2a	0.09886582
106	0x3d962177	0.07330602
107	0xbd11856e	-0.03552764
108	0xbd4c29f7	-0.04984471
109	0x3dac6872	0.08418359
110	0x3d579d2d	0.05264013
111	0xbd9cd6bb	-0.07658144
112	0x39b8bcb4	0.0003523581
113	0x3d2e9b8d	0.042628814
114	0x3d30e0ff	0.043183323
115	0xbcd13f02	-0.02554274
116	0xb8ebc8fc	-0.000112431095
117	0xbb1564be	-0.0022795643
118	0xbd60739d	-0.054797757
119	0xbd3ec726	-0.04657664
120	0x3db401ef	0.08789431
121	0x3d9eac0a	0.077476576
122	0xbca35dd2	-0.019942198
123	0x3cf40c5c	0.02979105
124	0x3d8be660	0.0683105
125	0xbcfc9822	-0.030834261
126	0x3d87dd98	0.066340625
127	0x3db36896	0.087601826
128	0x3d1805cc	0.037114903
129	0x3da02a46	0.07820563
130	0x3db0cdea	0.08633025
131	0xbd6784a4	-0.05652298
132	0xbdc49ee5	-0.09600619
133	0xbc8a53c9	-0.016885655
134	0xbd171ee1	-0.036894683
135	0xbd39df74	-0.045379117
136	0xbbcaf259	-0.006193441
137	0x3d9d3ae4	0.07677248
138	0x3d7f546f	0.06233638
139	0x3d147dac	0.036252663
140	0x3c18a98f	0.00931777
141	0x3d9f5cf1	0.07781399
142	0x3c77d5b7	0.015126637
143	0xbc028615	-0.007966538
144	0xbd91058c	-0.07081136
145	0xbd59d2a1	-0.053179387
146	0xbc36584e	-0.011129452
147	0x3d000010	0.03125006
148	0xbca6ac3d	-0.020345801
149	0xbd93344e	-0.07187711
150	0x3c374b5c	0.011187401
151	0xbd9fc378	-0.078009546
152	0x3da1aef5	0.078946985
153	0x3d78c5db	0.060735565
154	0xbdb7c6ef	-0.089734904
155	0x3d30cb1f	0.04316246
156	0x3c3630af	0.0111200055
157	0x3d37cf3f	0.04487538
158	0xbdb92943	-0.09041073
159	0xb923e6f3	-0.00015630927
160	0xbdac8d48	-0.08425385
161	0xbd245f27	-0.040129807
162	0xbd2d95e4	-0.042379275
163	0x3d40961b	0.04701815
164	0xbb06924d	-0.002053398
165	0x3d429e1c	0.047514066
166	0x3d33c9a9	0.04389349
167	0x3dbfd796	0.09367292
168	0xbd9e9af4	-0.07744399
169	0x3c294daf	0.010333463
170	0xbd2405bd	-0.040044535
171	0x3d488373	0.048953485
172	0x3d793e87	0.060850646
173	0x3db004de	0.08594678
174	0x3d85cbcd	0.065330125
175	0x3d44b510	0.048024237
176	0xbaa26a43	-0.0012391288
177	0x3d7bb0bb	0.06144784
178	0x3d8aeb02	0.067831054
179	0x3ba4ca29	0.005028982
180	0xbdd17b2a	-0.1022857
181	0xbda4b913	-0.080431126
182	0x3d39e446	0.045383714
183	0xbcf0128b	-0.029305717
184	0xbd576e4f	-0.052595433
185	0xbd221ca4	-0.039578095
186	0xbdbc8eb9	-0.0920691
187	0xbd5cc0df	-0.053894874
188	0x3d8d3c7b	0.06896301
189	0x3dc22764	0.094801694
190	0x3db0e832	0.08638038
191	0x3cde44c9	0.027132409
192	0x3dc0756a	0.09397395
193	0xbc76578b	-0.01503552
194	0xbd346b37	-0.04404756
195	0x3baabbaf	0.005210362
196	0xbd732c8b	-0.05936865
197	0xbc2f833f	-0.010712444
198	0xbdb93cbb	-0.090447865
199	0xbdabd483	-0.08390143
200	0xbc9f5732	-0.019450758
201	0xbd71c391	-0.059024397
202	0xbd14e737	-0.036353316
203	0xbdbb0190	-0.091311574
204	0x3cb5c6db	0.022189548
205	0xbd735385	-0.059405822
206	0xbd330baa	-0.043712296
207	0x3d41d695	0.047323782
208	0x3da1f4cb	0.07908019
209	0x3db1feea	0.08691199
210	0xbda5a81e	-0.080887064
211	0xbab08dcf	-0.0013469997
212	0x3d5e5c34	0.05428715
213	0x3b979129	0.0046254587
214	0xbd1a7d5b	-0.037717205
215	0xbda344e0	-0.07972121
216	0x3c1ade76	0.009452453
217	0xbdcdc25a	-0.10046835
218	0x3d88f229	0.066868134
219	0x3d6f49b2	0.05841989
220	0xbd67f1d3	-0.056627106
221	0xbd966df3	-0.0734519
222	0xbd69306a	-0.056930937
223	0x3d809ae1	0.06279541
224	0x3c63e847	0.01391036
225	0x3d7c213d	0.061555136
226	0x3d877aef	0.066152446
227	0xbd47bc9f	-0.048763867
228	0x3d5ab575	0.053395707
229	0x3ca84f16	0.020545524
230	0x3d60cc31	0.054882232
231	0x3d73570f	0.059409197
232	0xbb460bd5	-0.0030219455
233	0xbd05f794	-0.032706812
234	0xba38eed7	-0.0007054633
235	0xbc634008	-0.013870247
236	0x3d925a26	0.07146101
237	0x3dadc60f	0.08485042
238	0x3ca3b512	0.019983802
239	0x3b8a5c0d	0.004222399
240	0x3cd17d8e	0.025572564
241	0x3d97efb4	0.074187666
242	0x3d39b67c	0.045340046
243	0x3d7fba1e	0.062433355
244	0xbd3fcb51	-0.046824757
245	0xbd951752	-0.072798386
246	0xbd57a76b	-0.052649897
247	0xbd0464d6	-0.032322727
248	0xbd043032	-0.032272525
249	0xbdcc4298	-0.09973639
250	0xbd73560d	-0.059408236
251	0xbd8585f2	-0.06519689
252	0x3dc230af	0.09481942
253	0xbcad7b4b	-0.021176955
254	0xbda189f7	-0.07887643
255	0x3daa8559	0.08326215

net.0.bias f4 [128]
0	0xbdbdfc98	-0.09276694
1	0xbd7555dc	-0.059896335
2	0xbd4e5994	-0.050378397
3	0x3d57309c	0.052536592
4	0xbd0f1fc9	-0.034942422
5	0xbdc252ac	-0.09488425
6	0xbda2bd62	-0.07946278
7	0xbced8fd9	-0.028999256
8	0xbba27f3a	-0.0049590142
9	0xbd197f27	-0.037474778
10	0x3c33d43f	0.010975896
11	0xbbff3e2b	-0.0077893934
12	0xbdb309af	-0.087420814
13	0x3d9e216b	0.07721218
14	0xbd1908e3	-0.03736199
15	0xbb24bf30	-0.002513837
16	0xbbd6181c	-0.006533636
17	0x3d53a79e	0.051673524
18	0xbd16631e	-0.03671562
19	0x3ca5283d	0.020160789
20	0xbd21bbed	-0.03948586
21	0xbd521779	-0.051291917
22	0x3d4778c1	0.048699144
23	0x3d5e12ba	0.054217078
24	0x3d6dfa33	0.058099937
25	0x3c7d73f7	0.015469543
26	0x3d764397	0.060123052
27	0x3d9533f9	0.072853036
28	0x3d931574	0.07181826
29	0x3cc5cd13	0.024145639
30	0x3daed0f9	0.08535952
31	0xbd90dce8	-0.070733845
32	0x3db9975d	0.090620734
33	0x3d4e77f5	0.05040737
34	0xbdb2f9de	-0.08739065
35	0xbd8dd4eb	-0.069253765
36	0x3ba7fd27	0.0051266137
37	0x3da22160	0.07916522
38	0xbdbc53bd	-0.09195659
39	0x3bd66402	0.0065426836
40	0x3c61f53b	0.013791378
41	0xbdbcce73	-0.092190646
42	0xbd087480	-0.033314228
43	0xbd1e6063	-0.03866614
44	0x3d5b8c55	0.053600628
45	0xbd8bd618	-0.068279445
46	0x3ccb9d6c	0.024855338
47	0xbd630bc0	-0.055431128
48	0xbb571d1c	-0.0032823747
49	0xbd623c37	-0.055233207
50	0xbd418c25	-0.047252793
51	0x3d84914b	0.06473025
52	0x3d47e7f7	0.048805203
53	0x3cc72b03	0.024312502
54	0xbd76648e	-0.06015449
55	0x3c510645	0.012757842
56	0xbce86b99	-0.028371619
57	0x3bbf5ce7	0.0058399322
58	0xbd327d0d	-0.04357629
59	0x3d331a21	0.04372609
60	0x3c7cfeea	0.015441636
61	0x3cbde631	0.023181053
62	0xbd66251c	-0.056187734
63	0x3ce6effb	0.028190603
64	0x3c55afae	0.013042374
65	0xbdb03cc2	-0.08605339
66	0x3928c440	0.00016094837
67	0x3dc1624d	0.094425775
68	0x3d119926	0.035546444
69	0xbd7e95f5	-0.06215473
70	0x3dbc4cfe	0.091943726
71	0x3da477a2	0.08030631
72	0xbbe1b9be	-0.0068885973
73	0x3dbadd01	0.091241844
74	0x3d2b5ecc	0.041838452
75	0xbd8f399a	-0.069934085
76	0xbd59ab4a	-0.05314187
77	0xbd866fba	-0.06564279
78	0x3d03320f	0.03203016
79	0xbdc46528	-0.095896065
80	0x3d7d1b45	0.061793584
81	0x3d7981f6	0.060914956
82	0xbcd3cf70	-0.02585575
83	0xbd2b67b2	-0.04184694
84	0xbb7f0f1a	-0.0038918913
85	0x3d424eb9	0.047438357
86	0x3d0deba1	0.03464854
87	0xbd9e0c06	-0.07717137
88	0x3d52852c	0.051396534
89	0x3cde4bdf	0.027135788
90	0xbcabe3a2	-0.020982567
91	0xbdb337e7	-0.08750897
92	0xbcceadff	-0.025229452
93	0xbdc76972	-0.09736909
94	0xbbd27aa5	-0.006423312
95	0x3d387afa	0.045039155
96	0xbc31a59b	-0.010842706
97	0x3d85140b	0.064979635
98	0xbca2568c	-0.01981666
99	0x3d958c76	0.073021814
100	0xbd2bbc18	-0.041927427
101	0x3d42dfee	0.047576837
102	0xbd396477	-0.045261826
103	0xbc9b840b	-0.018983861
104	0x3dac91df	0.0842626
105	0xbce457b6	-0.027873855
106	0x3d9300cb	0.071778856
107	0x3da15894	0.07878223
108	0x3d654339	0.05597231
109	0x3da9a79b	0.08283921
110	0x3d1234c1	0.03569484
111	0xbcc4aba5	-0.024007628
112	0x3db86d30	0.09005201
113	0xbd951256	-0.07278888
114	0x3d8c9882	0.06865026
115	0xbd02810b	-0.031861346
116	0x3d4b9388	0.049701244
117	0x3dae5185	0.08511642
118	0x3d5aaf7b	0.053390007
119	0xbd761ebc	-0.060087904
120	0x3b1661d0	0.0022946484
121	0xbd2279c1	-0.039666895
122	0x3d414634	0.04718609
123	0xbb23e611	-0.0025008956
124	0xbb381b7f	-0.002809256
125	0x3c3a058b	0.011353861
126	0x3d9e93a5	0.07743005
127	0xbd5a8f1f	-0.053359147

net.2.weight f4 [64, 128]
0	0xbd82f988	-0.063952506
1	0x3d85faa7	0.06541949
2	0x3dbad70f	0.091230504
3	0xbd88f0e7	-0.066865735
4	0xbd4e7101	-0.050400738
5	0xbcb0f3bc	-0.021600597
6	0xbd89a78a	-0.06721409
7	0x3c9606b0	0.018313736
8	0xbd9600e5	-0.07324389
9	0x3d240643	0.040045034
10	0xbda4d341	-0.08048106
11	0xbda57b3f	-0.08080148
12	0xbd97e857	-0.07417362
13	0xbd291510	-0.041279852
14	0x3cf61d88	0.030043378
15	0xbcd5c474	-0.026094653
16	0xbd89ee2a	-0.06734879
17	0xbd66caef	-0.056345876
18	0x3d6226f3	0.055212926
19	0xbd9c0f28	-0.07620078
20	0x3da9cbf3	0.08290853
21	0xbd185317	-0.037188616
22	0xbc20958a	-0.009801278
23	0xbc993b81	-0.018705131
24	0xbd043004	-0.032272354
25	0x3c5c6bf0	0.013453469
26	0xbd3cfab3	-0.046137523
27	0xbc02d168	-0.007984497
28	0x3d1563f6	0.036472283
29	0x3d584cbd	0.05280756
30	0xbd7dbeeb	-0.06194965
31	0x3d01176b	0.031516474
32	0xbd69f039	-0.05711386
33	0x3da072ad	0.07834373
34	0x3d81ab11	0.063314565
35	0x3d9ec17c	0.07751748
36	0x3da87fa0	0.082274675
37	0x3da05d7d	0.078303315
38	0x3d483cd7	0.048886146
39	0x3d8eb7f1	0.06968678
40	0x3d0e914f	0.034806546
41	0xbbd1b17e	-0.0063993325
42	0xbd629d28	-0.055325657
43	0xbd6f0377	-0.058352914
44	0x3c6dbdff	0.014510631
45	0x3d0f7a91	0.035028998
46	0xbca730f3	-0.020409083
47	0x3d372e51	0.044721905
48	0x3d9d9a8d	0.07695494
49	0xbcb37801	-0.021907808
50	0xbdb31656	-0.087444946
51	0x3d1b2db7	0.037885394
52	0xbd9a5ba6	-0.07537012
53	0xbcd8af88	-0.026450887
54	0x3d1d0ab3	0.03834028
55	0xbd104ed5	-0.03523143
56	0x3d946974	0.07246676
57	0x3d0e4f2e	0.03474348
58	0xbd26cf34	-0.040724948
59	0x3d96ebdf	0.073692076
60	0x3c093080	0.00837338
61	0xbc3c6fa8	-0.01150123
62	0xbd27120e	-0.040788703
63	0xbd8f71e0	-0.07004142
64	0xbccabbf1	-0.02474782
65	0x3db570d1	0.08859409
66	0x39cd9c50	0.0003921711
67	0x3cd3cdca	0.025854964
68	0xbd8b1302	-0.06790735
69	0x3dae8e51	0.085232385
70	0x3d4f5b7b	0.050624352
71	0xbbd550d3	-0.006509879
72	0x3c842dd2	0.01613513
73	0x3da127a3	0.07868888
74	0xbd377dfa	-0.044797875
75	0x3d040dae	0.03223961
76	0xbd8d044f	-0.068855874
77	0xbd549dbf	-0.05190825
78	0xbd641bee	-0.0556907
79	0x3c45ae10	0.0120654255
80	0xbbf418e3	-0.007449256
81	0xbd63f68c	-0.055655047
82	0x3d8c959e	0.06864475
83	0xbd530f6f	-0.05152839
84	0x3d3b53a8	0.045734078
85	0xbcbfe767	-0.02342577
86	0x3c82a25e	0.015946563
87	0xbc83939d	-0.016061598
88	0x3d1e159b	0.038594823
89	0xbbab5a44	-0.0052292664
90	0x3d772021	0.060333375
91	0x3d1fd4d9	0.039021347
92	0x3da04b47	0.07826858
93	0x3d6a7a26	0.057245396
94	0x3d110270	0.035402715
95	0x3d19c0fd	0.037537564
96	0x3b7e336b	0.0038787972
97	0x3da4a8ec	0.08040032
98	0x3da201fe	0.07910536
99	0xbd743054	-0.0596164
100	0xbdae1250	-0.084995866
101	0x3d837292	0.06418337
102	0xbd7fef69	-0.06248418
103	0x3c062bee	0.008189185
104	0x3d452915	0.048134882
105	0xbcaf5ccf	-0.02140656
106	0xbd9af858	-0.07566899
107	0xbd5ef001	-0.054428104
108	0x3d8e11ff	0.06937026
109	0x3d5ee0c4	0.054413572
110	0x3d0d1adc	0.034449443
111	0xbc35eed7	-0.011104307
112	0x3caca789	0.02107598
113	0xbd6bd456	-0.057575546
114	0xbd61b544	-0.05510451
115	0xbd070ff9	-0.032974217
116	0xbc1d2e89	-0.009593614
117	0xbd620e9e	-0.05518972
118	0x3d000d0d	0.031262446
119	0xbb9c0feb	-0.0047626398
120	0x3c9d996b	0.019238194
121	0x3c9b1d0b	0.018934747
122	0x3c2490a3	0.01004425
123	0x3cbb1c65	0.022840688
124	0x3cfd5da8	0.030928448
125	0xbd069edc	-0.032866344
126	0xbd08a56b	-0.03336088
127	0x3c75c665	0.015000914
128	0x3cf24fbe	0.02957904
129	0xbd8b27ae	-0.06794678
130	0x3d1b1429	0.037861023
131	0xb8e0b9aa	-0.00010715735
132	0x3d94bf77	0.072630815
133	0xbdad5ae5	-0.084646024
134	0x3be522f9	0.0069926945
135	0xbd96696e	-0.07344328
136	0xbd71e3f9	-0.059055302
137	0x3d6efa97	0.05834445
138	0xbd202c06	-0.039104484
139	0xbd9293f5	-0.07157127
140	0xbd14b2ef	-0.036303457
141	0xbd415e9f	-0.04720938
142	0xbdacd078	-0.084382
143	0xbd9ab960	-0.07554889
144	0x3d8ce8cb	0.06880339
145	0xba9e3ef6	-0.0012073207
146	0x3c859dde	0.016310629
147	0x3b70736a	0.0036689886
148	0x3db458a2	0.08805968
149	0x3d8eaea0	0.06966901
150	0xbc618ac2	-0.013765993
151	0x3cf2b1ea	0.029625852
152	0xbd6c5dd7	-0.05770668
153	0x3d31dcbd	0.043423403
154	0x3d796ef6	0.060896836
155	0x3d560da6	0.05225911
156	0xbc6feb8e	-0.014643563
157	0xbc5e0e36	-0.013553193
158	0x3c8fbc3b	0.01754581
159	0x3c440464	0.011963937
160	0x3d6e24e0	0.058140635
161	0x3c986880	0.018604517
162	0x3dbbabfe	0.09163664
163	0x3cdc55a4	0.026896305
164	0xbd455bb5	-0.04818316
165	0x3d872c19	0.06600208
166	0xbd428f3f	-0.04749989
167	0xbca4e9f4	-0.020131089
168	0x3d2cad99	0.042157743
169	0x3d3ce50b	0.04611687
170	0x3d8e8ea8	0.06960803
171	0x3d3b6aa0	0.045755982
172	0x3a780905	0.0009461793
173	0xbd6bafe4	-0.05754079
174	0xbd080162	-0.033204444
175	0xbd7ccad9	-0.061716888
176	0xbd80a17a	-0.06280799
177	0x3cf11839	0.029430496
178	0xbda1d4f7	-0.07901948
179	0x3c963ed9	0.018340515
180	0x3d015321	0.03157342
181	0xbda383f5	-0.07984153
182	0x3d87c174	0.06628695
183	0x3cae5b33	0.021283722
184	0xbd7f4c68	-0.062328726
185	0x3d687a58	0.0567573
186	0xbccd1263	-0.025033182
187	0x3d9f11d8	0.07767075
188	0x3bbd4ede	0.005777224
189	0x3dab1e5c	0.083554
190	0xbc8d3cb2	-0.017240856
191	0x3bee48e8	0.0072718747
192	0x3d7a106d	0.06105082
193	0xbd60379b	-0.05474053
194	0xbd914f05	-0.0709515
195	0xbd4239f0	-0.047418535
196	0x3d4f0983	0.05054618
197	0xbd15ffb4	-0.03662081
198	0x3d811bed	0.063041545
199	0xbb822b29	-0.0039724302
200	0xbcf0ce37	-0.029395206
201	0xbc3918e9	-0.011297443
202	0x3d261d0d	0.04055505
203	0xbd3453ab	-0.044025104
204	0xbd77feae	-0.060545616
205	0xbd101ae3	-0.03518189
206	0x3cdc7884	0.026912935
207	0x3d2bd230	0.041948497
208	0xbd884c7c	-0.06655213
209	0xbd8f127b	-0.06985947
210	0xbc22529d	-0.009907392
211	0x3d97a1e9	0.07403929
212	0x3d117f3e	0.03552174
213	0xbd93506a	-0.07193072
214	0xbc200d05	-0.009768729
215	0xbc8b8c01	-0.017034533
216	0xbd92810f	-0.07153522
217	0x3d6c6049	0.057709012
218	0xbd2fdcea	-0.04293529
219	0x3cbe0920	0.02319771
220	0x3d458908	0.048226386
221	0x3d6800e9	0.056641493
222	0x3cb66dc2	0.022269133
223	0xbc3b09da	-0.011415923
224	0x3d8b4318	0.067999065
225	0xbcf3e689	-0.029773014
226	0xbd9c741c	-0.076393336
227	0xbda75f01	-0.081724174
228	0xbcc57163	-0.024101919
229	0xbbcf816f	-0.0063325684
230	0xbd9ed278	-0.077549875
231	0x3d1dd13d	0.038529623
232	0xbcef3a93	-0.029202735
233	0x3d0f8b85	0.035045166
234	0x3d595fd4	0.053069904
235	0x3d26235e	0.040561073
236	0x3da04f7f	0.07827663
237	0x3cbf0bfd	0.023321146
238	0xbbc99397	-0.0061516273
239	0xbd109048	-0.035293847
240	0x3d6f559a	0.058431245
241	0xbcb67399	-0.022271918
242	0xbd9d3599	-0.076762386
243	0x3cf566b6	0.029956203
244	0x3b2c0744	0.0026249448
245	0x3ced9c62	0.029005233
246	0xbcee24b5	-0.029070238
247	0xbce6ff0d	-0.02819779
248	0x3bcc1997	0.0062286365
249	0xbd43f33d	-0.047839392
250	0xbd87a74d	-0.06623707
251	0x3d887362	0.066626325
252	0xbd344c26	-0.044017933
253	0xbd98d686	-0.07462792
254	0x3ce97bf5	0.02850149
255	0x3cd9f90d	0.026608014

net.2.bias f4 [64]
0	0xbc20dd90	-0.00981845
1	0xbba04a98	-0.004891705
2	0xbd2a48d3	-0.041573357
3	0x3bb20f3d	0.0054339455
4	0xbda093e4	-0.07840708
5	0x3da790e8	0.081819355
6	0xbd4bad16	-0.049725614
7	0xbc86c676	-0.016452055
8	0xbd8b90fc	-0.06814763
9	0x3cc34df3	0.02384088
10	0xbd050753	-0.032477688
11	0x3d796ebf	0.06089663
12	0x3d6c2c44	0.057659402
13	0xbd56129f	-0.052263852
14	0xbda53839	-0.08067364
15	0x3dad2008	0.08453375
16	0x3d6263b3	0.05527086
17	0xbd537440	-0.051624537
18	0x3ca254ad	0.019815767
19	0x3d51c420	0.05121243
20	0x3cce59f6	0.025189381
21	0x3b45c01a	0.0030174316
22	0x3d917cf9	0.07103915
23	0x3db9a19a	0.09064026
24	0x3d0a2a0e	0.033731513
25	0xbdb0b495	-0.08628193
26	0xbc495664	-0.012288664
27	0xbd72aaf7	-0.059245076
28	0xbd30630d	-0.043063212
29	0x3da70416	0.08155076
30	0xbcb0f4ce	-0.021601107
31	0x3d090f57	0.033461895
32	0xbda899bd	-0.08232448
33	0x3c800af7	0.015630228
34	0xbce99f72	-0.028518412
35	0x3c1cc6f1	0.009568916
36	0x3d43c4cb	0.0477951
37	0xbbd81579	-0.0065943566
38	0x3ba18f24	0.004930394
39	0x3c9d7260	0.019219577
40	0x3d9c89fc	0.07643506
41	0x3d46e9ac	0.04856269
42	0x3d31df2b	0.04342572
43	0x3d7b1e03	0.06130792
44	0xbd92cf05	-0.07168392
45	0x3c1e0b20	0.009646207
46	0x3d4f0e71	0.05055088
47	0x3ce16ff8	0.027519211
48	0x3c35aedf	0.011089056
49	0x3d58bf54	0.05291684
50	0x3d4fac0b	0.050701182
51	0xbd62b330	-0.055346668
52	0x3d91bd47	0.0711618
53	0x3da07134	0.07834092
54	0xbd787dfd	-0.060667027
55	0xbd136e58	-0.035993904
56	0xbc1506fd	-0.009095904
57	0xbd8d1de4	-0.06890467
58	0x3d9a563c	0.07535979
59	0x3d6fccfb	0.058545094
60	0x3d8cc644	0.06873754
61	0xbd7951b1	-0.060868923
62	0xbd3543cb	-0.044254106
63	0xbda1e7e4	-0.07905558

net.4.weight f4 [8, 64]
0	0xbd5e73a7	-0.054309513
1	0x3cc1674f	0.023608832
2	0xbd8a5968	-0.06755334
3	0xbd98cf54	-0.0746142
4	0xbd845ba5	-0.06462792
5	0xbcccd001	-0.025001528
6	0x3dbc6083	0.09198096
7	0x3d912019	0.070862
8	0x3db98579	0.09058661
9	0x3cdd579d	0.027019316
10	0x3dee1a99	0.11626167
11	0xbdd0cd90	-0.10195458
12	0xbdc2601a	-0.09490986
13	0xbceba0e3	-0.02876324
14	0x3da5b455	0.08091036
15	0xbdf8e64e	-0.12153302
16	0xbddc045e	-0.107430205
17	0x3bd0c352	0.0063709402
18	0x3d171ca9	0.036892567
19	0x3cfe9f2f	0.031081764
20	0xbcd6aa30	-0.026204199
21	0xbb0be0d3	-0.0021343722
22	0x3d8e9f99	0.069640346
23	0xbcb3b9fb	-0.021939268
24	0x3c990078	0.018676981
25	0x3de1e597	0.11030119
26	0x3cea873d	0.02862894
27	0xbda154c1	-0.07877494
28	0x3d8d2a0b	0.06892785
29	0x3d561e88	0.05227521
30	0x3d7528dd	0.059853423
31	0xbdb420bd	-0.08795307
32	0xbdbfe206	-0.093692824
33	0xb873eb45	-5.8154827e-05
34	0xbdb53f35	-0.088499464
35	0xbd243d88	-0.040097743
36	0xbd59a7af	-0.05313843
37	0xbdbc60ae	-0.09198128
38	0x3cff6e7d	0.031180615
39	0xbde36790	-0.11103737
40	0x3bd6f87d	0.006560384
41	0xbd8bb622	-0.068218485
42	0xbbcd0871	-0.00625711
43	0x3ca8d280	0.020608187
44	0x3d9c01e2	0.076175466
45	0xbd719c86	-0.058987163
46	0xbd3307b6	-0.043708526
47	0x3d71e334	0.05905457
48	0x3d71f56e	0.05907195
49	0x3ce2d5a3	0.02768976
50	0x3c972f41	0.01845515
51	0xbd1ca4b4	-0.03824301
52	0x3b7f3b70	0.003894534
53	0x3d9bc207	0.07605367
54	0x3dc12027	0.09429961
55	0x3de2a2fd	0.11066244
56	0x3c9450b1	0.018104883
57	0xbdc2ce49	-0.09512002
58	0xbd34e6f6	-0.044165574
59	0xbdb2c0be	-0.08728169
60	0xbb69093f	-0.003555849
61	0xbdcadfe0	-0.09905982
62	0xbc38b62e	-0.011273904
63	0xbde3bb12	-0.11119665
64	0xbd809dbd	-0.06280086
65	0x3d65f35f	0.0561403
66	0xbd426d00	-0.04746723
67	0x3dd2753d	0.10276268
68	0xbdb977bf	-0.09056043
69	0x3d97b405	0.07407383
70	0xbca3b835	-0.019985298
71	0xbde41288	-0.11136347
72	0x3dc99e40	0.09844637
73	0xbdce447c	-0.10071656
74	0xbd5d98e8	-0.0541009
75	0xbc8d92ae	-0.017281856
76	0xbce103c2	-0.027467612
77	0x3d9fab90	0.07796395
78	0x3dc99193	0.09842219
79	0xbda319b7	-0.07963889
80	0xbd60aacf	-0.054850396
81	0xbd7aa5ca	-0.061193265
82	0xbd9a9d9c	-0.07549593
83	0xbda0b31b	-0.07846662
84	0x3d07f2c5	0.033190507
85	0x3dc92ec9	0.09823377
86	0x3d77d851	0.06050903
87	0x3daeb1f7	0.08530038
88	0xbdc2e8dd	-0.095170714
89	0xbd832517	-0.06403559
90	0xbd82e2f4	-0.06390944
91	0xbde8ac23	-0.113609575
92	0xbd4788fe	-0.04871463
93	0xbded9ca0	-0.116021395
94	0x3e0074fa	0.12544623
95	0x3c92f3b4	0.017938472
96	0x3d958ed6	0.073026344
97	0xbcd60d86	-0.026129495
98	0xbc88fc02	-0.01672173
99	0xbdd9158c	-0.10599813
100	0x3de25159	0.11050672
101	0x3df6267a	0.120190576
102	0x3cf25801	0.02958298
103	0x3cca5c55	0.02470223
104	0x3b8123bc	0.0039410274
105	0x3d8f8ae6	0.07008915
106	0xbc8252e6	-0.01590867
107	0x3df5317d	0.1197233
108	0xbd4485a1	-0.047979
109	0x3daeb6cc	0.085309595
110	0x3dd98b91	0.10622323
111	0xbdd555d1	-0.10416759
112	0xbd0f00f6	-0.034913026
113	0x3df34962	0.11879231
114	0x3df3591a	0.11882229
115	0xbdc8ce86	-0.09805016
116	0xbd915ee6	-0.070981786
117	0xbde373be	-0.111060604
118	0xbcc6252f	-0.024187652
119	0x3d9a28dc	0.075273246
120	0xbdacd22a	-0.08438523
121	0xbd8fa2ac	-0.07013449
122	0xbc193615	-0.009351273
123	0x3def8256	0.116947815
124	0xbcef109d	-0.029182727
125	0x3dc1c9b5	0.09462301
126	0xbdadb8af	-0.08482491
127	0x3df1f5a9	0.11814434
128	0x3dc38432	0.09546699
129	0xbdb8ed1c	-0.090296
130	0x3dd4495a	0.10365553
131	0xbbd91c78	-0.006625708
132	0xbdbe7a41	-0.09300662
133	0xbcb8271b	-0.022479584
134	0xbd052f47	-0.03251579
135	0x3d9a7d7c	0.075434655
136	0xbc5d1ca4	-0.013495598
137	0xbdbe10a2	-0.09280516
138	0x3dcefe21	0.10107065
139	0xb9f41e60	-0.00046561938
140	0x3be26470	0.0069089457
141	0xbd887b03	-0.066640876
142	0x3d5ea22a	0.05435387
143	0xbd76974a	-0.060202874
144	0x3db02d2c	0.08602366
145	0x3d821d69	0.06353266
146	0xbcd05887	-0.025432838
147	0xbd0bb599	-0.034108732
148	0xbdcd007f	-0.1000986
149	0xbd7ed40d	-0.062213946
150	0xbdb4ff46	-0.08837752
151	0xbd82443c	-0.06360671
152	0x3dcd29b0	0.10017717
153	0xbd895d4b	-0.06707247
154	0x3dd2642d	0.10273013
155	0x3dbf2b56	0.093344375
156	0x3c393114	0.011303205
157	0xbd1014e9	-0.03517619
158	0xbd5806d1	-0.052740876
159	0xbcf6af82	-0.030112986
160	0x3df302ae	0.118657455
161	0x3cd988aa	0.026554424
162	0xbd836e64	-0.0641754
163	0x3d74f573	0.05980439
164	0x3d565c93	0.05233438
165	0xbd385686	-0.04500439
166	0x3b933932	0.004492902
167	0x3d693634	0.056936458
168	0x3d9e6a86	0.077351615
169	0x3da8be80	0.0823946
170	0xbdf9bc1c	-0.12194082
171	0x3dc5bd92	0.09655298
172	0x3bc8de32	0.0061300034
173	0x3ce9c3c8	0.028535739
174	0xbd77b3d2	-0.060474224
175	0x3df0d59e	0.11759494
176	0xbda4a41b	-0.08039113
177	0xbce4e5e1	-0.027941646
178	0xbcf00775	-0.02930043
179	0x3df0c006	0.117553756
180	0xbdb9f637	-0.09080165
181	0x3b606df9	0.0034245236
182	0xbc3397e1	-0.010961504
183	0xbd03fe8d	-0.03222518
184	0xbdc0ec7b	-0.09420105
185	0xbda359b3	-0.07976093
186	0x3c1ea981	0.009683968
187	0xbc86de12	-0.016463313
188	0xbd46ec33	-0.0485651
189	0x3d4c317e	0.049851887
190	0x3d96d957	0.07365673
191	0xbdf5d7e7	-0.12004071
192	0x3da3fff4	0.080078036
193	0xbbc49f38	-0.0060004257
194	0x3d86bd3d	0.06579063
195	0x3ca374f2	0.019953225
196	0xbd2b4939	-0.041817877
197	0x3d8dd2c9	0.0692497
198	0xbb37cf8e	-0.0028047296
199	0xbdd29d58	-0.10283917
200	0xbd887c83	-0.06664374
201	0xbd5c1458	-0.05373034
202	0xbc8057b5	-0.015666822
203	0x3adba812	0.0016758463
204	0xbdea554e	-0.11442052
205	0x3dadbf2b	0.08483728
206	0x3d0e552c	0.034749195
207	0xbc2f2d8d	-0.0106920125
208	0xbc82c241	-0.015961768
209	0xbdb8d0fa	-0.09024234
210	0x3d39ab3d	0.04532932
211	0xbd2cd781	-0.042197708
212	0xbcff0770	-0.031131476
213	0xbdf39065	-0.118927754
214	0xbdb7eea8	-0.08981067
215	0x3c07dc63	0.00829229
216	0xbdafa1a3	-0.08575752
217	0x3cb01079	0.02149223
218	0xbbe9630d	-0.0071224035
219	0x3d7cbb3b	0.061701994
220	0xbd8ff0fd	-0.07028387
221	0x3de07012	0.10958876
222	0xbd385a04	-0.04500772
223	0xbd07ccb5	-0.03315421
224	0x3ddf5290	0.109044194
225	0xb81d367e	-3.7482467e-05
226	0x3d048d39	0.032361243
227	0x3d0f82e7	0.035036948
228	0x3c8fc7da	0.017551351
229	0xbcbdbf2b	-0.023162445
230	0xba4104d0	-0.0007363083
231	0x3c6dd27f	0.014515518
232	0x3d5089df	0.050912734
233	0xbae1e56c	-0.0017234511
234	0xbd81c683	-0.06336691
235	0x3d192c4f	0.03739577
236	0x3ba5e8b0	0.005063139
237	0x3d4d275e	0.05008637
238	0x3d0ec508	0.034855872
239	0x3dcbd491	0.09952653
240	0x3d8d4e4b	0.06899699
241	0xbc069e55	-0.00821646
242	0x3bc390dd	0.005968197
243	0xbd44fdcb	-0.0480936
244	0x3db08499	0.08619041
245	0xbd3d4702	-0.046210296
246	0x3dc1533e	0.09439705
247	0x3d7c5ea0	0.06161368
248	0xbc148aba	-0.009066278
249	0xbb7cedbf	-0.0038593856
250	0xbc066c3f	-0.008204519
251	0xbdc988a6	-0.09840517
252	0x3d9e9e0b	0.07744988
253	0x3d396d83	0.045270454
254	0xbcd583a3	-0.026063746
255	0xbdf62840	-0.12019396

net.4.bias f4 [8]
0	0x3d75aa96	0.059977137
1	0x3d324754	0.043525055
2	0x3d5ea3a9	0.054355297
3	0xbca52957	-0.020161314
4	0xbd3065f5	-0.043065984
5	0x3dd63eaa	0.10461171
6	0x3d5bcb73	0.05366082
7	0xbdb4f486	-0.08835702
